OPTForSequenceClassification(
  1315.76 M, 100.00% Params, 156.23 GMACs, 100.00% MACs, 49.68 ms, 100.00% latency, 6.29 TFLOPS,
  (model): OPTModel(
    1315.76 M, 100.00% Params, 156.23 GMACs, 100.00% MACs, 49.31 ms, 99.27% latency, 6.34 TFLOPS,
    (decoder): OPTDecoder(
      1315.76 M, 100.00% Params, 156.23 GMACs, 100.00% MACs, 49.27 ms, 99.18% latency, 6.34 TFLOPS,
      (embed_tokens): Embedding(102.96 M, 7.82% Params, 0 MACs, 0.00% MACs, 60.8 us, 0.12% latency, 0.0 FLOPS, 50272, 2048, padding_idx=1)
      (embed_positions): OPTLearnedPositionalEmbedding(4.2 M, 0.32% Params, 0 MACs, 0.00% MACs, 128.75 us, 0.26% latency, 0.0 FLOPS, 2050, 2048)
      (final_layer_norm): LayerNorm(4.1 k, 0.00% Params, 0 MACs, 0.00% MACs, 48.16 us, 0.10% latency, 27.22 GFLOPS, (2048,), eps=1e-05, elementwise_affine=True)
      (layers): ModuleList(
        1208.6 M, 91.86% Params, 156.23 GMACs, 100.00% MACs, 48.26 ms, 97.14% latency, 6.48 TFLOPS,
        (0): OPTDecoderLayer(
          50.36 M, 3.83% Params, 6.51 GMACs, 4.17% MACs, 2.07 ms, 4.17% latency, 6.28 TFLOPS,
          (self_attn): OPTAttention(
            16.79 M, 1.28% Params, 2.21 GMACs, 1.42% MACs, 1.03 ms, 2.08% latency, 4.29 TFLOPS,
            (k_proj): Linear(4.2 M, 0.32% Params, 536.87 MMACs, 0.34% MACs, 168.8 us, 0.34% latency, 6.36 TFLOPS, in_features=2048, out_features=2048, bias=True)
            (v_proj): Linear(4.2 M, 0.32% Params, 536.87 MMACs, 0.34% MACs, 141.62 us, 0.29% latency, 7.58 TFLOPS, in_features=2048, out_features=2048, bias=True)
            (q_proj): Linear(4.2 M, 0.32% Params, 536.87 MMACs, 0.34% MACs, 171.42 us, 0.35% latency, 6.26 TFLOPS, in_features=2048, out_features=2048, bias=True)
            (out_proj): Linear(4.2 M, 0.32% Params, 536.87 MMACs, 0.34% MACs, 157.59 us, 0.32% latency, 6.81 TFLOPS, in_features=2048, out_features=2048, bias=True)
          )
          (activation_fn): ReLU(0, 0.00% Params, 0 MACs, 0.00% MACs, 43.39 us, 0.09% latency, 24.17 GFLOPS, )
          (self_attn_layer_norm): LayerNorm(4.1 k, 0.00% Params, 0 MACs, 0.00% MACs, 56.27 us, 0.11% latency, 23.29 GFLOPS, (2048,), eps=1e-05, elementwise_affine=True)
          (fc1): Linear(16.79 M, 1.28% Params, 2.15 GMACs, 1.37% MACs, 320.43 us, 0.65% latency, 13.4 TFLOPS, in_features=2048, out_features=8192, bias=True)
          (fc2): Linear(16.78 M, 1.28% Params, 2.15 GMACs, 1.37% MACs, 347.38 us, 0.70% latency, 12.36 TFLOPS, in_features=8192, out_features=2048, bias=True)
          (final_layer_norm): LayerNorm(4.1 k, 0.00% Params, 0 MACs, 0.00% MACs, 50.78 us, 0.10% latency, 25.81 GFLOPS, (2048,), eps=1e-05, elementwise_affine=True)
        )
        (1): OPTDecoderLayer(
          50.36 M, 3.83% Params, 6.51 GMACs, 4.17% MACs, 2.02 ms, 4.07% latency, 6.43 TFLOPS,
          (self_attn): OPTAttention(
            16.79 M, 1.28% Params, 2.21 GMACs, 1.42% MACs, 991.82 us, 2.00% latency, 4.47 TFLOPS,
            (k_proj): Linear(4.2 M, 0.32% Params, 536.87 MMACs, 0.34% MACs, 157.36 us, 0.32% latency, 6.82 TFLOPS, in_features=2048, out_features=2048, bias=True)
            (v_proj): Linear(4.2 M, 0.32% Params, 536.87 MMACs, 0.34% MACs, 155.69 us, 0.31% latency, 6.9 TFLOPS, in_features=2048, out_features=2048, bias=True)
            (q_proj): Linear(4.2 M, 0.32% Params, 536.87 MMACs, 0.34% MACs, 142.57 us, 0.29% latency, 7.53 TFLOPS, in_features=2048, out_features=2048, bias=True)
            (out_proj): Linear(4.2 M, 0.32% Params, 536.87 MMACs, 0.34% MACs, 153.54 us, 0.31% latency, 6.99 TFLOPS, in_features=2048, out_features=2048, bias=True)
          )
          (activation_fn): ReLU(0, 0.00% Params, 0 MACs, 0.00% MACs, 42.2 us, 0.08% latency, 24.85 GFLOPS, )
          (self_attn_layer_norm): LayerNorm(4.1 k, 0.00% Params, 0 MACs, 0.00% MACs, 49.59 us, 0.10% latency, 26.43 GFLOPS, (2048,), eps=1e-05, elementwise_affine=True)
          (fc1): Linear(16.79 M, 1.28% Params, 2.15 GMACs, 1.37% MACs, 326.16 us, 0.66% latency, 13.17 TFLOPS, in_features=2048, out_features=8192, bias=True)
          (fc2): Linear(16.78 M, 1.28% Params, 2.15 GMACs, 1.37% MACs, 352.86 us, 0.71% latency, 12.17 TFLOPS, in_features=8192, out_features=2048, bias=True)
          (final_layer_norm): LayerNorm(4.1 k, 0.00% Params, 0 MACs, 0.00% MACs, 50.54 us, 0.10% latency, 25.93 GFLOPS, (2048,), eps=1e-05, elementwise_affine=True)
        )
        (2): OPTDecoderLayer(
          50.36 M, 3.83% Params, 6.51 GMACs, 4.17% MACs, 2.02 ms, 4.07% latency, 6.43 TFLOPS,
          (self_attn): OPTAttention(
            16.79 M, 1.28% Params, 2.21 GMACs, 1.42% MACs, 1.0 ms, 2.02% latency, 4.41 TFLOPS,
            (k_proj): Linear(4.2 M, 0.32% Params, 536.87 MMACs, 0.34% MACs, 160.22 us, 0.32% latency, 6.7 TFLOPS, in_features=2048, out_features=2048, bias=True)
            (v_proj): Linear(4.2 M, 0.32% Params, 536.87 MMACs, 0.34% MACs, 153.78 us, 0.31% latency, 6.98 TFLOPS, in_features=2048, out_features=2048, bias=True)
            (q_proj): Linear(4.2 M, 0.32% Params, 536.87 MMACs, 0.34% MACs, 156.88 us, 0.32% latency, 6.84 TFLOPS, in_features=2048, out_features=2048, bias=True)
            (out_proj): Linear(4.2 M, 0.32% Params, 536.87 MMACs, 0.34% MACs, 161.65 us, 0.33% latency, 6.64 TFLOPS, in_features=2048, out_features=2048, bias=True)
          )
          (activation_fn): ReLU(0, 0.00% Params, 0 MACs, 0.00% MACs, 40.05 us, 0.08% latency, 26.18 GFLOPS, )
          (self_attn_layer_norm): LayerNorm(4.1 k, 0.00% Params, 0 MACs, 0.00% MACs, 47.92 us, 0.10% latency, 27.35 GFLOPS, (2048,), eps=1e-05, elementwise_affine=True)
          (fc1): Linear(16.79 M, 1.28% Params, 2.15 GMACs, 1.37% MACs, 320.2 us, 0.64% latency, 13.41 TFLOPS, in_features=2048, out_features=8192, bias=True)
          (fc2): Linear(16.78 M, 1.28% Params, 2.15 GMACs, 1.37% MACs, 344.75 us, 0.69% latency, 12.46 TFLOPS, in_features=8192, out_features=2048, bias=True)
          (final_layer_norm): LayerNorm(4.1 k, 0.00% Params, 0 MACs, 0.00% MACs, 49.83 us, 0.10% latency, 26.3 GFLOPS, (2048,), eps=1e-05, elementwise_affine=True)
        )
        (3): OPTDecoderLayer(
          50.36 M, 3.83% Params, 6.51 GMACs, 4.17% MACs, 1.99 ms, 4.01% latency, 6.53 TFLOPS,
          (self_attn): OPTAttention(
            16.79 M, 1.28% Params, 2.21 GMACs, 1.42% MACs, 972.75 us, 1.96% latency, 4.55 TFLOPS,
            (k_proj): Linear(4.2 M, 0.32% Params, 536.87 MMACs, 0.34% MACs, 153.78 us, 0.31% latency, 6.98 TFLOPS, in_features=2048, out_features=2048, bias=True)
            (v_proj): Linear(4.2 M, 0.32% Params, 536.87 MMACs, 0.34% MACs, 140.43 us, 0.28% latency, 7.65 TFLOPS, in_features=2048, out_features=2048, bias=True)
            (q_proj): Linear(4.2 M, 0.32% Params, 536.87 MMACs, 0.34% MACs, 157.83 us, 0.32% latency, 6.8 TFLOPS, in_features=2048, out_features=2048, bias=True)
            (out_proj): Linear(4.2 M, 0.32% Params, 536.87 MMACs, 0.34% MACs, 150.2 us, 0.30% latency, 7.15 TFLOPS, in_features=2048, out_features=2048, bias=True)
          )
          (activation_fn): ReLU(0, 0.00% Params, 0 MACs, 0.00% MACs, 40.77 us, 0.08% latency, 25.72 GFLOPS, )
          (self_attn_layer_norm): LayerNorm(4.1 k, 0.00% Params, 0 MACs, 0.00% MACs, 49.35 us, 0.10% latency, 26.56 GFLOPS, (2048,), eps=1e-05, elementwise_affine=True)
          (fc1): Linear(16.79 M, 1.28% Params, 2.15 GMACs, 1.37% MACs, 319.24 us, 0.64% latency, 13.45 TFLOPS, in_features=2048, out_features=8192, bias=True)
          (fc2): Linear(16.78 M, 1.28% Params, 2.15 GMACs, 1.37% MACs, 341.89 us, 0.69% latency, 12.56 TFLOPS, in_features=8192, out_features=2048, bias=True)
          (final_layer_norm): LayerNorm(4.1 k, 0.00% Params, 0 MACs, 0.00% MACs, 58.65 us, 0.12% latency, 22.35 GFLOPS, (2048,), eps=1e-05, elementwise_affine=True)
        )
        (4): OPTDecoderLayer(
          50.36 M, 3.83% Params, 6.51 GMACs, 4.17% MACs, 2.06 ms, 4.14% latency, 6.33 TFLOPS,
          (self_attn): OPTAttention(
            16.79 M, 1.28% Params, 2.21 GMACs, 1.42% MACs, 996.59 us, 2.01% latency, 4.44 TFLOPS,
            (k_proj): Linear(4.2 M, 0.32% Params, 536.87 MMACs, 0.34% MACs, 156.64 us, 0.32% latency, 6.85 TFLOPS, in_features=2048, out_features=2048, bias=True)
            (v_proj): Linear(4.2 M, 0.32% Params, 536.87 MMACs, 0.34% MACs, 156.16 us, 0.31% latency, 6.88 TFLOPS, in_features=2048, out_features=2048, bias=True)
            (q_proj): Linear(4.2 M, 0.32% Params, 536.87 MMACs, 0.34% MACs, 150.92 us, 0.30% latency, 7.11 TFLOPS, in_features=2048, out_features=2048, bias=True)
            (out_proj): Linear(4.2 M, 0.32% Params, 536.87 MMACs, 0.34% MACs, 158.79 us, 0.32% latency, 6.76 TFLOPS, in_features=2048, out_features=2048, bias=True)
          )
          (activation_fn): ReLU(0, 0.00% Params, 0 MACs, 0.00% MACs, 39.82 us, 0.08% latency, 26.34 GFLOPS, )
          (self_attn_layer_norm): LayerNorm(4.1 k, 0.00% Params, 0 MACs, 0.00% MACs, 85.83 us, 0.17% latency, 15.27 GFLOPS, (2048,), eps=1e-05, elementwise_affine=True)
          (fc1): Linear(16.79 M, 1.28% Params, 2.15 GMACs, 1.37% MACs, 319.0 us, 0.64% latency, 13.46 TFLOPS, in_features=2048, out_features=8192, bias=True)
          (fc2): Linear(16.78 M, 1.28% Params, 2.15 GMACs, 1.37% MACs, 345.47 us, 0.70% latency, 12.43 TFLOPS, in_features=8192, out_features=2048, bias=True)
          (final_layer_norm): LayerNorm(4.1 k, 0.00% Params, 0 MACs, 0.00% MACs, 51.26 us, 0.10% latency, 25.57 GFLOPS, (2048,), eps=1e-05, elementwise_affine=True)
        )
        (5): OPTDecoderLayer(
          50.36 M, 3.83% Params, 6.51 GMACs, 4.17% MACs, 2.03 ms, 4.08% latency, 6.43 TFLOPS,
          (self_attn): OPTAttention(
            16.79 M, 1.28% Params, 2.21 GMACs, 1.42% MACs, 997.07 us, 2.01% latency, 4.44 TFLOPS,
            (k_proj): Linear(4.2 M, 0.32% Params, 536.87 MMACs, 0.34% MACs, 155.45 us, 0.31% latency, 6.91 TFLOPS, in_features=2048, out_features=2048, bias=True)
            (v_proj): Linear(4.2 M, 0.32% Params, 536.87 MMACs, 0.34% MACs, 144.72 us, 0.29% latency, 7.42 TFLOPS, in_features=2048, out_features=2048, bias=True)
            (q_proj): Linear(4.2 M, 0.32% Params, 536.87 MMACs, 0.34% MACs, 159.74 us, 0.32% latency, 6.72 TFLOPS, in_features=2048, out_features=2048, bias=True)
            (out_proj): Linear(4.2 M, 0.32% Params, 536.87 MMACs, 0.34% MACs, 163.32 us, 0.33% latency, 6.57 TFLOPS, in_features=2048, out_features=2048, bias=True)
          )
          (activation_fn): ReLU(0, 0.00% Params, 0 MACs, 0.00% MACs, 40.29 us, 0.08% latency, 26.02 GFLOPS, )
          (self_attn_layer_norm): LayerNorm(4.1 k, 0.00% Params, 0 MACs, 0.00% MACs, 49.35 us, 0.10% latency, 26.56 GFLOPS, (2048,), eps=1e-05, elementwise_affine=True)
          (fc1): Linear(16.79 M, 1.28% Params, 2.15 GMACs, 1.37% MACs, 318.77 us, 0.64% latency, 13.47 TFLOPS, in_features=2048, out_features=8192, bias=True)
          (fc2): Linear(16.78 M, 1.28% Params, 2.15 GMACs, 1.37% MACs, 352.38 us, 0.71% latency, 12.19 TFLOPS, in_features=8192, out_features=2048, bias=True)
          (final_layer_norm): LayerNorm(4.1 k, 0.00% Params, 0 MACs, 0.00% MACs, 50.31 us, 0.10% latency, 26.05 GFLOPS, (2048,), eps=1e-05, elementwise_affine=True)
        )
        (6): OPTDecoderLayer(
          50.36 M, 3.83% Params, 6.51 GMACs, 4.17% MACs, 2.0 ms, 4.03% latency, 6.51 TFLOPS,
          (self_attn): OPTAttention(
            16.79 M, 1.28% Params, 2.21 GMACs, 1.42% MACs, 975.85 us, 1.96% latency, 4.54 TFLOPS,
            (k_proj): Linear(4.2 M, 0.32% Params, 536.87 MMACs, 0.34% MACs, 145.44 us, 0.29% latency, 7.38 TFLOPS, in_features=2048, out_features=2048, bias=True)
            (v_proj): Linear(4.2 M, 0.32% Params, 536.87 MMACs, 0.34% MACs, 147.82 us, 0.30% latency, 7.26 TFLOPS, in_features=2048, out_features=2048, bias=True)
            (q_proj): Linear(4.2 M, 0.32% Params, 536.87 MMACs, 0.34% MACs, 160.69 us, 0.32% latency, 6.68 TFLOPS, in_features=2048, out_features=2048, bias=True)
            (out_proj): Linear(4.2 M, 0.32% Params, 536.87 MMACs, 0.34% MACs, 149.49 us, 0.30% latency, 7.18 TFLOPS, in_features=2048, out_features=2048, bias=True)
          )
          (activation_fn): ReLU(0, 0.00% Params, 0 MACs, 0.00% MACs, 41.48 us, 0.08% latency, 25.28 GFLOPS, )
          (self_attn_layer_norm): LayerNorm(4.1 k, 0.00% Params, 0 MACs, 0.00% MACs, 58.89 us, 0.12% latency, 22.26 GFLOPS, (2048,), eps=1e-05, elementwise_affine=True)
          (fc1): Linear(16.79 M, 1.28% Params, 2.15 GMACs, 1.37% MACs, 318.05 us, 0.64% latency, 13.5 TFLOPS, in_features=2048, out_features=8192, bias=True)
          (fc2): Linear(16.78 M, 1.28% Params, 2.15 GMACs, 1.37% MACs, 346.9 us, 0.70% latency, 12.38 TFLOPS, in_features=8192, out_features=2048, bias=True)
          (final_layer_norm): LayerNorm(4.1 k, 0.00% Params, 0 MACs, 0.00% MACs, 48.88 us, 0.10% latency, 26.82 GFLOPS, (2048,), eps=1e-05, elementwise_affine=True)
        )
        (7): OPTDecoderLayer(
          50.36 M, 3.83% Params, 6.51 GMACs, 4.17% MACs, 2.01 ms, 4.04% latency, 6.49 TFLOPS,
          (self_attn): OPTAttention(
            16.79 M, 1.28% Params, 2.21 GMACs, 1.42% MACs, 987.29 us, 1.99% latency, 4.49 TFLOPS,
            (k_proj): Linear(4.2 M, 0.32% Params, 536.87 MMACs, 0.34% MACs, 154.26 us, 0.31% latency, 6.96 TFLOPS, in_features=2048, out_features=2048, bias=True)
            (v_proj): Linear(4.2 M, 0.32% Params, 536.87 MMACs, 0.34% MACs, 155.93 us, 0.31% latency, 6.89 TFLOPS, in_features=2048, out_features=2048, bias=True)
            (q_proj): Linear(4.2 M, 0.32% Params, 536.87 MMACs, 0.34% MACs, 146.63 us, 0.30% latency, 7.32 TFLOPS, in_features=2048, out_features=2048, bias=True)
            (out_proj): Linear(4.2 M, 0.32% Params, 536.87 MMACs, 0.34% MACs, 160.69 us, 0.32% latency, 6.68 TFLOPS, in_features=2048, out_features=2048, bias=True)
          )
          (activation_fn): ReLU(0, 0.00% Params, 0 MACs, 0.00% MACs, 39.58 us, 0.08% latency, 26.49 GFLOPS, )
          (self_attn_layer_norm): LayerNorm(4.1 k, 0.00% Params, 0 MACs, 0.00% MACs, 49.59 us, 0.10% latency, 26.43 GFLOPS, (2048,), eps=1e-05, elementwise_affine=True)
          (fc1): Linear(16.79 M, 1.28% Params, 2.15 GMACs, 1.37% MACs, 318.29 us, 0.64% latency, 13.49 TFLOPS, in_features=2048, out_features=8192, bias=True)
          (fc2): Linear(16.78 M, 1.28% Params, 2.15 GMACs, 1.37% MACs, 347.14 us, 0.70% latency, 12.37 TFLOPS, in_features=8192, out_features=2048, bias=True)
          (final_layer_norm): LayerNorm(4.1 k, 0.00% Params, 0 MACs, 0.00% MACs, 50.31 us, 0.10% latency, 26.05 GFLOPS, (2048,), eps=1e-05, elementwise_affine=True)
        )
        (8): OPTDecoderLayer(
          50.36 M, 3.83% Params, 6.51 GMACs, 4.17% MACs, 2.0 ms, 4.03% latency, 6.5 TFLOPS,
          (self_attn): OPTAttention(
            16.79 M, 1.28% Params, 2.21 GMACs, 1.42% MACs, 983.24 us, 1.98% latency, 4.51 TFLOPS,
            (k_proj): Linear(4.2 M, 0.32% Params, 536.87 MMACs, 0.34% MACs, 154.73 us, 0.31% latency, 6.94 TFLOPS, in_features=2048, out_features=2048, bias=True)
            (v_proj): Linear(4.2 M, 0.32% Params, 536.87 MMACs, 0.34% MACs, 145.2 us, 0.29% latency, 7.4 TFLOPS, in_features=2048, out_features=2048, bias=True)
            (q_proj): Linear(4.2 M, 0.32% Params, 536.87 MMACs, 0.34% MACs, 157.12 us, 0.32% latency, 6.83 TFLOPS, in_features=2048, out_features=2048, bias=True)
            (out_proj): Linear(4.2 M, 0.32% Params, 536.87 MMACs, 0.34% MACs, 157.59 us, 0.32% latency, 6.81 TFLOPS, in_features=2048, out_features=2048, bias=True)
          )
          (activation_fn): ReLU(0, 0.00% Params, 0 MACs, 0.00% MACs, 40.77 us, 0.08% latency, 25.72 GFLOPS, )
          (self_attn_layer_norm): LayerNorm(4.1 k, 0.00% Params, 0 MACs, 0.00% MACs, 49.83 us, 0.10% latency, 26.3 GFLOPS, (2048,), eps=1e-05, elementwise_affine=True)
          (fc1): Linear(16.79 M, 1.28% Params, 2.15 GMACs, 1.37% MACs, 318.29 us, 0.64% latency, 13.49 TFLOPS, in_features=2048, out_features=8192, bias=True)
          (fc2): Linear(16.78 M, 1.28% Params, 2.15 GMACs, 1.37% MACs, 347.14 us, 0.70% latency, 12.37 TFLOPS, in_features=8192, out_features=2048, bias=True)
          (final_layer_norm): LayerNorm(4.1 k, 0.00% Params, 0 MACs, 0.00% MACs, 49.83 us, 0.10% latency, 26.3 GFLOPS, (2048,), eps=1e-05, elementwise_affine=True)
        )
        (9): OPTDecoderLayer(
          50.36 M, 3.83% Params, 6.51 GMACs, 4.17% MACs, 1.98 ms, 3.98% latency, 6.59 TFLOPS,
          (self_attn): OPTAttention(
            16.79 M, 1.28% Params, 2.21 GMACs, 1.42% MACs, 960.59 us, 1.93% latency, 4.61 TFLOPS,
            (k_proj): Linear(4.2 M, 0.32% Params, 536.87 MMACs, 0.34% MACs, 139.0 us, 0.28% latency, 7.72 TFLOPS, in_features=2048, out_features=2048, bias=True)
            (v_proj): Linear(4.2 M, 0.32% Params, 536.87 MMACs, 0.34% MACs, 153.54 us, 0.31% latency, 6.99 TFLOPS, in_features=2048, out_features=2048, bias=True)
            (q_proj): Linear(4.2 M, 0.32% Params, 536.87 MMACs, 0.34% MACs, 157.83 us, 0.32% latency, 6.8 TFLOPS, in_features=2048, out_features=2048, bias=True)
            (out_proj): Linear(4.2 M, 0.32% Params, 536.87 MMACs, 0.34% MACs, 143.05 us, 0.29% latency, 7.51 TFLOPS, in_features=2048, out_features=2048, bias=True)
          )
          (activation_fn): ReLU(0, 0.00% Params, 0 MACs, 0.00% MACs, 39.58 us, 0.08% latency, 26.49 GFLOPS, )
          (self_attn_layer_norm): LayerNorm(4.1 k, 0.00% Params, 0 MACs, 0.00% MACs, 49.83 us, 0.10% latency, 26.3 GFLOPS, (2048,), eps=1e-05, elementwise_affine=True)
          (fc1): Linear(16.79 M, 1.28% Params, 2.15 GMACs, 1.37% MACs, 317.57 us, 0.64% latency, 13.52 TFLOPS, in_features=2048, out_features=8192, bias=True)
          (fc2): Linear(16.78 M, 1.28% Params, 2.15 GMACs, 1.37% MACs, 347.61 us, 0.70% latency, 12.36 TFLOPS, in_features=8192, out_features=2048, bias=True)
          (final_layer_norm): LayerNorm(4.1 k, 0.00% Params, 0 MACs, 0.00% MACs, 48.88 us, 0.10% latency, 26.82 GFLOPS, (2048,), eps=1e-05, elementwise_affine=True)
        )
        (10): OPTDecoderLayer(
          50.36 M, 3.83% Params, 6.51 GMACs, 4.17% MACs, 2.02 ms, 4.06% latency, 6.45 TFLOPS,
          (self_attn): OPTAttention(
            16.79 M, 1.28% Params, 2.21 GMACs, 1.42% MACs, 997.54 us, 2.01% latency, 4.44 TFLOPS,
            (k_proj): Linear(4.2 M, 0.32% Params, 536.87 MMACs, 0.34% MACs, 158.55 us, 0.32% latency, 6.77 TFLOPS, in_features=2048, out_features=2048, bias=True)
            (v_proj): Linear(4.2 M, 0.32% Params, 536.87 MMACs, 0.34% MACs, 156.64 us, 0.32% latency, 6.85 TFLOPS, in_features=2048, out_features=2048, bias=True)
            (q_proj): Linear(4.2 M, 0.32% Params, 536.87 MMACs, 0.34% MACs, 154.02 us, 0.31% latency, 6.97 TFLOPS, in_features=2048, out_features=2048, bias=True)
            (out_proj): Linear(4.2 M, 0.32% Params, 536.87 MMACs, 0.34% MACs, 159.5 us, 0.32% latency, 6.73 TFLOPS, in_features=2048, out_features=2048, bias=True)
          )
          (activation_fn): ReLU(0, 0.00% Params, 0 MACs, 0.00% MACs, 39.82 us, 0.08% latency, 26.34 GFLOPS, )
          (self_attn_layer_norm): LayerNorm(4.1 k, 0.00% Params, 0 MACs, 0.00% MACs, 50.07 us, 0.10% latency, 26.18 GFLOPS, (2048,), eps=1e-05, elementwise_affine=True)
          (fc1): Linear(16.79 M, 1.28% Params, 2.15 GMACs, 1.37% MACs, 317.81 us, 0.64% latency, 13.51 TFLOPS, in_features=2048, out_features=8192, bias=True)
          (fc2): Linear(16.78 M, 1.28% Params, 2.15 GMACs, 1.37% MACs, 348.09 us, 0.70% latency, 12.34 TFLOPS, in_features=8192, out_features=2048, bias=True)
          (final_layer_norm): LayerNorm(4.1 k, 0.00% Params, 0 MACs, 0.00% MACs, 49.35 us, 0.10% latency, 26.56 GFLOPS, (2048,), eps=1e-05, elementwise_affine=True)
        )
        (11): OPTDecoderLayer(
          50.36 M, 3.83% Params, 6.51 GMACs, 4.17% MACs, 2.02 ms, 4.06% latency, 6.45 TFLOPS,
          (self_attn): OPTAttention(
            16.79 M, 1.28% Params, 2.21 GMACs, 1.42% MACs, 1.0 ms, 2.02% latency, 4.42 TFLOPS,
            (k_proj): Linear(4.2 M, 0.32% Params, 536.87 MMACs, 0.34% MACs, 157.83 us, 0.32% latency, 6.8 TFLOPS, in_features=2048, out_features=2048, bias=True)
            (v_proj): Linear(4.2 M, 0.32% Params, 536.87 MMACs, 0.34% MACs, 143.05 us, 0.29% latency, 7.51 TFLOPS, in_features=2048, out_features=2048, bias=True)
            (q_proj): Linear(4.2 M, 0.32% Params, 536.87 MMACs, 0.34% MACs, 161.65 us, 0.33% latency, 6.64 TFLOPS, in_features=2048, out_features=2048, bias=True)
            (out_proj): Linear(4.2 M, 0.32% Params, 536.87 MMACs, 0.34% MACs, 171.66 us, 0.35% latency, 6.25 TFLOPS, in_features=2048, out_features=2048, bias=True)
          )
          (activation_fn): ReLU(0, 0.00% Params, 0 MACs, 0.00% MACs, 40.29 us, 0.08% latency, 26.02 GFLOPS, )
          (self_attn_layer_norm): LayerNorm(4.1 k, 0.00% Params, 0 MACs, 0.00% MACs, 48.88 us, 0.10% latency, 26.82 GFLOPS, (2048,), eps=1e-05, elementwise_affine=True)
          (fc1): Linear(16.79 M, 1.28% Params, 2.15 GMACs, 1.37% MACs, 318.05 us, 0.64% latency, 13.5 TFLOPS, in_features=2048, out_features=8192, bias=True)
          (fc2): Linear(16.78 M, 1.28% Params, 2.15 GMACs, 1.37% MACs, 347.61 us, 0.70% latency, 12.36 TFLOPS, in_features=8192, out_features=2048, bias=True)
          (final_layer_norm): LayerNorm(4.1 k, 0.00% Params, 0 MACs, 0.00% MACs, 50.31 us, 0.10% latency, 26.05 GFLOPS, (2048,), eps=1e-05, elementwise_affine=True)
        )
        (12): OPTDecoderLayer(
          50.36 M, 3.83% Params, 6.51 GMACs, 4.17% MACs, 1.99 ms, 4.00% latency, 6.56 TFLOPS,
          (self_attn): OPTAttention(
            16.79 M, 1.28% Params, 2.21 GMACs, 1.42% MACs, 973.7 us, 1.96% latency, 4.55 TFLOPS,
            (k_proj): Linear(4.2 M, 0.32% Params, 536.87 MMACs, 0.34% MACs, 139.47 us, 0.28% latency, 7.7 TFLOPS, in_features=2048, out_features=2048, bias=True)
            (v_proj): Linear(4.2 M, 0.32% Params, 536.87 MMACs, 0.34% MACs, 156.16 us, 0.31% latency, 6.88 TFLOPS, in_features=2048, out_features=2048, bias=True)
            (q_proj): Linear(4.2 M, 0.32% Params, 536.87 MMACs, 0.34% MACs, 159.74 us, 0.32% latency, 6.72 TFLOPS, in_features=2048, out_features=2048, bias=True)
            (out_proj): Linear(4.2 M, 0.32% Params, 536.87 MMACs, 0.34% MACs, 152.83 us, 0.31% latency, 7.03 TFLOPS, in_features=2048, out_features=2048, bias=True)
          )
          (activation_fn): ReLU(0, 0.00% Params, 0 MACs, 0.00% MACs, 40.05 us, 0.08% latency, 26.18 GFLOPS, )
          (self_attn_layer_norm): LayerNorm(4.1 k, 0.00% Params, 0 MACs, 0.00% MACs, 48.4 us, 0.10% latency, 27.08 GFLOPS, (2048,), eps=1e-05, elementwise_affine=True)
          (fc1): Linear(16.79 M, 1.28% Params, 2.15 GMACs, 1.37% MACs, 318.05 us, 0.64% latency, 13.5 TFLOPS, in_features=2048, out_features=8192, bias=True)
          (fc2): Linear(16.78 M, 1.28% Params, 2.15 GMACs, 1.37% MACs, 347.85 us, 0.70% latency, 12.35 TFLOPS, in_features=8192, out_features=2048, bias=True)
          (final_layer_norm): LayerNorm(4.1 k, 0.00% Params, 0 MACs, 0.00% MACs, 49.11 us, 0.10% latency, 26.69 GFLOPS, (2048,), eps=1e-05, elementwise_affine=True)
        )
        (13): OPTDecoderLayer(
          50.36 M, 3.83% Params, 6.51 GMACs, 4.17% MACs, 2.0 ms, 4.02% latency, 6.51 TFLOPS,
          (self_attn): OPTAttention(
            16.79 M, 1.28% Params, 2.21 GMACs, 1.42% MACs, 992.77 us, 2.00% latency, 4.46 TFLOPS,
            (k_proj): Linear(4.2 M, 0.32% Params, 536.87 MMACs, 0.34% MACs, 155.45 us, 0.31% latency, 6.91 TFLOPS, in_features=2048, out_features=2048, bias=True)
            (v_proj): Linear(4.2 M, 0.32% Params, 536.87 MMACs, 0.34% MACs, 151.63 us, 0.31% latency, 7.08 TFLOPS, in_features=2048, out_features=2048, bias=True)
            (q_proj): Linear(4.2 M, 0.32% Params, 536.87 MMACs, 0.34% MACs, 149.49 us, 0.30% latency, 7.18 TFLOPS, in_features=2048, out_features=2048, bias=True)
            (out_proj): Linear(4.2 M, 0.32% Params, 536.87 MMACs, 0.34% MACs, 160.69 us, 0.32% latency, 6.68 TFLOPS, in_features=2048, out_features=2048, bias=True)
          )
          (activation_fn): ReLU(0, 0.00% Params, 0 MACs, 0.00% MACs, 41.01 us, 0.08% latency, 25.57 GFLOPS, )
          (self_attn_layer_norm): LayerNorm(4.1 k, 0.00% Params, 0 MACs, 0.00% MACs, 47.68 us, 0.10% latency, 27.49 GFLOPS, (2048,), eps=1e-05, elementwise_affine=True)
          (fc1): Linear(16.79 M, 1.28% Params, 2.15 GMACs, 1.37% MACs, 317.81 us, 0.64% latency, 13.51 TFLOPS, in_features=2048, out_features=8192, bias=True)
          (fc2): Linear(16.78 M, 1.28% Params, 2.15 GMACs, 1.37% MACs, 342.61 us, 0.69% latency, 12.54 TFLOPS, in_features=8192, out_features=2048, bias=True)
          (final_layer_norm): LayerNorm(4.1 k, 0.00% Params, 0 MACs, 0.00% MACs, 48.88 us, 0.10% latency, 26.82 GFLOPS, (2048,), eps=1e-05, elementwise_affine=True)
        )
        (14): OPTDecoderLayer(
          50.36 M, 3.83% Params, 6.51 GMACs, 4.17% MACs, 2.02 ms, 4.06% latency, 6.46 TFLOPS,
          (self_attn): OPTAttention(
            16.79 M, 1.28% Params, 2.21 GMACs, 1.42% MACs, 999.69 us, 2.01% latency, 4.43 TFLOPS,
            (k_proj): Linear(4.2 M, 0.32% Params, 536.87 MMACs, 0.34% MACs, 158.55 us, 0.32% latency, 6.77 TFLOPS, in_features=2048, out_features=2048, bias=True)
            (v_proj): Linear(4.2 M, 0.32% Params, 536.87 MMACs, 0.34% MACs, 137.57 us, 0.28% latency, 7.81 TFLOPS, in_features=2048, out_features=2048, bias=True)
            (q_proj): Linear(4.2 M, 0.32% Params, 536.87 MMACs, 0.34% MACs, 161.17 us, 0.32% latency, 6.66 TFLOPS, in_features=2048, out_features=2048, bias=True)
            (out_proj): Linear(4.2 M, 0.32% Params, 536.87 MMACs, 0.34% MACs, 165.22 us, 0.33% latency, 6.5 TFLOPS, in_features=2048, out_features=2048, bias=True)
          )
          (activation_fn): ReLU(0, 0.00% Params, 0 MACs, 0.00% MACs, 39.58 us, 0.08% latency, 26.49 GFLOPS, )
          (self_attn_layer_norm): LayerNorm(4.1 k, 0.00% Params, 0 MACs, 0.00% MACs, 47.92 us, 0.10% latency, 27.35 GFLOPS, (2048,), eps=1e-05, elementwise_affine=True)
          (fc1): Linear(16.79 M, 1.28% Params, 2.15 GMACs, 1.37% MACs, 317.57 us, 0.64% latency, 13.52 TFLOPS, in_features=2048, out_features=8192, bias=True)
          (fc2): Linear(16.78 M, 1.28% Params, 2.15 GMACs, 1.37% MACs, 351.91 us, 0.71% latency, 12.2 TFLOPS, in_features=8192, out_features=2048, bias=True)
          (final_layer_norm): LayerNorm(4.1 k, 0.00% Params, 0 MACs, 0.00% MACs, 49.83 us, 0.10% latency, 26.3 GFLOPS, (2048,), eps=1e-05, elementwise_affine=True)
        )
        (15): OPTDecoderLayer(
          50.36 M, 3.83% Params, 6.51 GMACs, 4.17% MACs, 1.98 ms, 3.99% latency, 6.56 TFLOPS,
          (self_attn): OPTAttention(
            16.79 M, 1.28% Params, 2.21 GMACs, 1.42% MACs, 973.94 us, 1.96% latency, 4.55 TFLOPS,
            (k_proj): Linear(4.2 M, 0.32% Params, 536.87 MMACs, 0.34% MACs, 142.81 us, 0.29% latency, 7.52 TFLOPS, in_features=2048, out_features=2048, bias=True)
            (v_proj): Linear(4.2 M, 0.32% Params, 536.87 MMACs, 0.34% MACs, 153.06 us, 0.31% latency, 7.01 TFLOPS, in_features=2048, out_features=2048, bias=True)
            (q_proj): Linear(4.2 M, 0.32% Params, 536.87 MMACs, 0.34% MACs, 150.68 us, 0.30% latency, 7.13 TFLOPS, in_features=2048, out_features=2048, bias=True)
            (out_proj): Linear(4.2 M, 0.32% Params, 536.87 MMACs, 0.34% MACs, 147.34 us, 0.30% latency, 7.29 TFLOPS, in_features=2048, out_features=2048, bias=True)
          )
          (activation_fn): ReLU(0, 0.00% Params, 0 MACs, 0.00% MACs, 40.05 us, 0.08% latency, 26.18 GFLOPS, )
          (self_attn_layer_norm): LayerNorm(4.1 k, 0.00% Params, 0 MACs, 0.00% MACs, 47.21 us, 0.10% latency, 27.77 GFLOPS, (2048,), eps=1e-05, elementwise_affine=True)
          (fc1): Linear(16.79 M, 1.28% Params, 2.15 GMACs, 1.37% MACs, 316.38 us, 0.64% latency, 13.58 TFLOPS, in_features=2048, out_features=8192, bias=True)
          (fc2): Linear(16.78 M, 1.28% Params, 2.15 GMACs, 1.37% MACs, 349.28 us, 0.70% latency, 12.3 TFLOPS, in_features=8192, out_features=2048, bias=True)
          (final_layer_norm): LayerNorm(4.1 k, 0.00% Params, 0 MACs, 0.00% MACs, 49.83 us, 0.10% latency, 26.3 GFLOPS, (2048,), eps=1e-05, elementwise_affine=True)
        )
        (16): OPTDecoderLayer(
          50.36 M, 3.83% Params, 6.51 GMACs, 4.17% MACs, 2.03 ms, 4.08% latency, 6.42 TFLOPS,
          (self_attn): OPTAttention(
            16.79 M, 1.28% Params, 2.21 GMACs, 1.42% MACs, 1.01 ms, 2.04% latency, 4.37 TFLOPS,
            (k_proj): Linear(4.2 M, 0.32% Params, 536.87 MMACs, 0.34% MACs, 156.4 us, 0.31% latency, 6.87 TFLOPS, in_features=2048, out_features=2048, bias=True)
            (v_proj): Linear(4.2 M, 0.32% Params, 536.87 MMACs, 0.34% MACs, 155.69 us, 0.31% latency, 6.9 TFLOPS, in_features=2048, out_features=2048, bias=True)
            (q_proj): Linear(4.2 M, 0.32% Params, 536.87 MMACs, 0.34% MACs, 157.83 us, 0.32% latency, 6.8 TFLOPS, in_features=2048, out_features=2048, bias=True)
            (out_proj): Linear(4.2 M, 0.32% Params, 536.87 MMACs, 0.34% MACs, 160.69 us, 0.32% latency, 6.68 TFLOPS, in_features=2048, out_features=2048, bias=True)
          )
          (activation_fn): ReLU(0, 0.00% Params, 0 MACs, 0.00% MACs, 40.53 us, 0.08% latency, 25.87 GFLOPS, )
          (self_attn_layer_norm): LayerNorm(4.1 k, 0.00% Params, 0 MACs, 0.00% MACs, 47.92 us, 0.10% latency, 27.35 GFLOPS, (2048,), eps=1e-05, elementwise_affine=True)
          (fc1): Linear(16.79 M, 1.28% Params, 2.15 GMACs, 1.37% MACs, 317.57 us, 0.64% latency, 13.52 TFLOPS, in_features=2048, out_features=8192, bias=True)
          (fc2): Linear(16.78 M, 1.28% Params, 2.15 GMACs, 1.37% MACs, 349.28 us, 0.70% latency, 12.3 TFLOPS, in_features=8192, out_features=2048, bias=True)
          (final_layer_norm): LayerNorm(4.1 k, 0.00% Params, 0 MACs, 0.00% MACs, 49.35 us, 0.10% latency, 26.56 GFLOPS, (2048,), eps=1e-05, elementwise_affine=True)
        )
        (17): OPTDecoderLayer(
          50.36 M, 3.83% Params, 6.51 GMACs, 4.17% MACs, 2.0 ms, 4.03% latency, 6.51 TFLOPS,
          (self_attn): OPTAttention(
            16.79 M, 1.28% Params, 2.21 GMACs, 1.42% MACs, 988.72 us, 1.99% latency, 4.48 TFLOPS,
            (k_proj): Linear(4.2 M, 0.32% Params, 536.87 MMACs, 0.34% MACs, 158.55 us, 0.32% latency, 6.77 TFLOPS, in_features=2048, out_features=2048, bias=True)
            (v_proj): Linear(4.2 M, 0.32% Params, 536.87 MMACs, 0.34% MACs, 137.09 us, 0.28% latency, 7.83 TFLOPS, in_features=2048, out_features=2048, bias=True)
            (q_proj): Linear(4.2 M, 0.32% Params, 536.87 MMACs, 0.34% MACs, 158.55 us, 0.32% latency, 6.77 TFLOPS, in_features=2048, out_features=2048, bias=True)
            (out_proj): Linear(4.2 M, 0.32% Params, 536.87 MMACs, 0.34% MACs, 157.59 us, 0.32% latency, 6.81 TFLOPS, in_features=2048, out_features=2048, bias=True)
          )
          (activation_fn): ReLU(0, 0.00% Params, 0 MACs, 0.00% MACs, 40.77 us, 0.08% latency, 25.72 GFLOPS, )
          (self_attn_layer_norm): LayerNorm(4.1 k, 0.00% Params, 0 MACs, 0.00% MACs, 47.68 us, 0.10% latency, 27.49 GFLOPS, (2048,), eps=1e-05, elementwise_affine=True)
          (fc1): Linear(16.79 M, 1.28% Params, 2.15 GMACs, 1.37% MACs, 318.05 us, 0.64% latency, 13.5 TFLOPS, in_features=2048, out_features=8192, bias=True)
          (fc2): Linear(16.78 M, 1.28% Params, 2.15 GMACs, 1.37% MACs, 347.14 us, 0.70% latency, 12.37 TFLOPS, in_features=8192, out_features=2048, bias=True)
          (final_layer_norm): LayerNorm(4.1 k, 0.00% Params, 0 MACs, 0.00% MACs, 50.31 us, 0.10% latency, 26.05 GFLOPS, (2048,), eps=1e-05, elementwise_affine=True)
        )
        (18): OPTDecoderLayer(
          50.36 M, 3.83% Params, 6.51 GMACs, 4.17% MACs, 1.99 ms, 4.01% latency, 6.53 TFLOPS,
          (self_attn): OPTAttention(
            16.79 M, 1.28% Params, 2.21 GMACs, 1.42% MACs, 979.19 us, 1.97% latency, 4.52 TFLOPS,
            (k_proj): Linear(4.2 M, 0.32% Params, 536.87 MMACs, 0.34% MACs, 148.3 us, 0.30% latency, 7.24 TFLOPS, in_features=2048, out_features=2048, bias=True)
            (v_proj): Linear(4.2 M, 0.32% Params, 536.87 MMACs, 0.34% MACs, 155.21 us, 0.31% latency, 6.92 TFLOPS, in_features=2048, out_features=2048, bias=True)
            (q_proj): Linear(4.2 M, 0.32% Params, 536.87 MMACs, 0.34% MACs, 148.53 us, 0.30% latency, 7.23 TFLOPS, in_features=2048, out_features=2048, bias=True)
            (out_proj): Linear(4.2 M, 0.32% Params, 536.87 MMACs, 0.34% MACs, 150.68 us, 0.30% latency, 7.13 TFLOPS, in_features=2048, out_features=2048, bias=True)
          )
          (activation_fn): ReLU(0, 0.00% Params, 0 MACs, 0.00% MACs, 40.53 us, 0.08% latency, 25.87 GFLOPS, )
          (self_attn_layer_norm): LayerNorm(4.1 k, 0.00% Params, 0 MACs, 0.00% MACs, 48.4 us, 0.10% latency, 27.08 GFLOPS, (2048,), eps=1e-05, elementwise_affine=True)
          (fc1): Linear(16.79 M, 1.28% Params, 2.15 GMACs, 1.37% MACs, 318.29 us, 0.64% latency, 13.49 TFLOPS, in_features=2048, out_features=8192, bias=True)
          (fc2): Linear(16.78 M, 1.28% Params, 2.15 GMACs, 1.37% MACs, 351.67 us, 0.71% latency, 12.21 TFLOPS, in_features=8192, out_features=2048, bias=True)
          (final_layer_norm): LayerNorm(4.1 k, 0.00% Params, 0 MACs, 0.00% MACs, 49.35 us, 0.10% latency, 26.56 GFLOPS, (2048,), eps=1e-05, elementwise_affine=True)
        )
        (19): OPTDecoderLayer(
          50.36 M, 3.83% Params, 6.51 GMACs, 4.17% MACs, 2.01 ms, 4.05% latency, 6.48 TFLOPS,
          (self_attn): OPTAttention(
            16.79 M, 1.28% Params, 2.21 GMACs, 1.42% MACs, 1.01 ms, 2.04% latency, 4.37 TFLOPS,
            (k_proj): Linear(4.2 M, 0.32% Params, 536.87 MMACs, 0.34% MACs, 158.79 us, 0.32% latency, 6.76 TFLOPS, in_features=2048, out_features=2048, bias=True)
            (v_proj): Linear(4.2 M, 0.32% Params, 536.87 MMACs, 0.34% MACs, 159.26 us, 0.32% latency, 6.74 TFLOPS, in_features=2048, out_features=2048, bias=True)
            (q_proj): Linear(4.2 M, 0.32% Params, 536.87 MMACs, 0.34% MACs, 156.64 us, 0.32% latency, 6.85 TFLOPS, in_features=2048, out_features=2048, bias=True)
            (out_proj): Linear(4.2 M, 0.32% Params, 536.87 MMACs, 0.34% MACs, 159.74 us, 0.32% latency, 6.72 TFLOPS, in_features=2048, out_features=2048, bias=True)
          )
          (activation_fn): ReLU(0, 0.00% Params, 0 MACs, 0.00% MACs, 39.82 us, 0.08% latency, 26.34 GFLOPS, )
          (self_attn_layer_norm): LayerNorm(4.1 k, 0.00% Params, 0 MACs, 0.00% MACs, 46.73 us, 0.09% latency, 28.05 GFLOPS, (2048,), eps=1e-05, elementwise_affine=True)
          (fc1): Linear(16.79 M, 1.28% Params, 2.15 GMACs, 1.37% MACs, 316.38 us, 0.64% latency, 13.58 TFLOPS, in_features=2048, out_features=8192, bias=True)
          (fc2): Linear(16.78 M, 1.28% Params, 2.15 GMACs, 1.37% MACs, 341.42 us, 0.69% latency, 12.58 TFLOPS, in_features=8192, out_features=2048, bias=True)
          (final_layer_norm): LayerNorm(4.1 k, 0.00% Params, 0 MACs, 0.00% MACs, 48.88 us, 0.10% latency, 26.82 GFLOPS, (2048,), eps=1e-05, elementwise_affine=True)
        )
        (20): OPTDecoderLayer(
          50.36 M, 3.83% Params, 6.51 GMACs, 4.17% MACs, 2.0 ms, 4.02% latency, 6.52 TFLOPS,
          (self_attn): OPTAttention(
            16.79 M, 1.28% Params, 2.21 GMACs, 1.42% MACs, 987.29 us, 1.99% latency, 4.49 TFLOPS,
            (k_proj): Linear(4.2 M, 0.32% Params, 536.87 MMACs, 0.34% MACs, 155.93 us, 0.31% latency, 6.89 TFLOPS, in_features=2048, out_features=2048, bias=True)
            (v_proj): Linear(4.2 M, 0.32% Params, 536.87 MMACs, 0.34% MACs, 137.57 us, 0.28% latency, 7.81 TFLOPS, in_features=2048, out_features=2048, bias=True)
            (q_proj): Linear(4.2 M, 0.32% Params, 536.87 MMACs, 0.34% MACs, 158.79 us, 0.32% latency, 6.76 TFLOPS, in_features=2048, out_features=2048, bias=True)
            (out_proj): Linear(4.2 M, 0.32% Params, 536.87 MMACs, 0.34% MACs, 159.26 us, 0.32% latency, 6.74 TFLOPS, in_features=2048, out_features=2048, bias=True)
          )
          (activation_fn): ReLU(0, 0.00% Params, 0 MACs, 0.00% MACs, 39.82 us, 0.08% latency, 26.34 GFLOPS, )
          (self_attn_layer_norm): LayerNorm(4.1 k, 0.00% Params, 0 MACs, 0.00% MACs, 46.73 us, 0.09% latency, 28.05 GFLOPS, (2048,), eps=1e-05, elementwise_affine=True)
          (fc1): Linear(16.79 M, 1.28% Params, 2.15 GMACs, 1.37% MACs, 317.1 us, 0.64% latency, 13.54 TFLOPS, in_features=2048, out_features=8192, bias=True)
          (fc2): Linear(16.78 M, 1.28% Params, 2.15 GMACs, 1.37% MACs, 348.33 us, 0.70% latency, 12.33 TFLOPS, in_features=8192, out_features=2048, bias=True)
          (final_layer_norm): LayerNorm(4.1 k, 0.00% Params, 0 MACs, 0.00% MACs, 48.88 us, 0.10% latency, 26.82 GFLOPS, (2048,), eps=1e-05, elementwise_affine=True)
        )
        (21): OPTDecoderLayer(
          50.36 M, 3.83% Params, 6.51 GMACs, 4.17% MACs, 1.99 ms, 4.01% latency, 6.54 TFLOPS,
          (self_attn): OPTAttention(
            16.79 M, 1.28% Params, 2.21 GMACs, 1.42% MACs, 973.7 us, 1.96% latency, 4.55 TFLOPS,
            (k_proj): Linear(4.2 M, 0.32% Params, 536.87 MMACs, 0.34% MACs, 146.87 us, 0.30% latency, 7.31 TFLOPS, in_features=2048, out_features=2048, bias=True)
            (v_proj): Linear(4.2 M, 0.32% Params, 536.87 MMACs, 0.34% MACs, 151.63 us, 0.31% latency, 7.08 TFLOPS, in_features=2048, out_features=2048, bias=True)
            (q_proj): Linear(4.2 M, 0.32% Params, 536.87 MMACs, 0.34% MACs, 149.49 us, 0.30% latency, 7.18 TFLOPS, in_features=2048, out_features=2048, bias=True)
            (out_proj): Linear(4.2 M, 0.32% Params, 536.87 MMACs, 0.34% MACs, 151.4 us, 0.30% latency, 7.09 TFLOPS, in_features=2048, out_features=2048, bias=True)
          )
          (activation_fn): ReLU(0, 0.00% Params, 0 MACs, 0.00% MACs, 41.25 us, 0.08% latency, 25.42 GFLOPS, )
          (self_attn_layer_norm): LayerNorm(4.1 k, 0.00% Params, 0 MACs, 0.00% MACs, 49.11 us, 0.10% latency, 26.69 GFLOPS, (2048,), eps=1e-05, elementwise_affine=True)
          (fc1): Linear(16.79 M, 1.28% Params, 2.15 GMACs, 1.37% MACs, 317.57 us, 0.64% latency, 13.52 TFLOPS, in_features=2048, out_features=8192, bias=True)
          (fc2): Linear(16.78 M, 1.28% Params, 2.15 GMACs, 1.37% MACs, 352.62 us, 0.71% latency, 12.18 TFLOPS, in_features=8192, out_features=2048, bias=True)
          (final_layer_norm): LayerNorm(4.1 k, 0.00% Params, 0 MACs, 0.00% MACs, 48.64 us, 0.10% latency, 26.95 GFLOPS, (2048,), eps=1e-05, elementwise_affine=True)
        )
        (22): OPTDecoderLayer(
          50.36 M, 3.83% Params, 6.51 GMACs, 4.17% MACs, 2.01 ms, 4.05% latency, 6.47 TFLOPS,
          (self_attn): OPTAttention(
            16.79 M, 1.28% Params, 2.21 GMACs, 1.42% MACs, 1.01 ms, 2.02% latency, 4.4 TFLOPS,
            (k_proj): Linear(4.2 M, 0.32% Params, 536.87 MMACs, 0.34% MACs, 155.21 us, 0.31% latency, 6.92 TFLOPS, in_features=2048, out_features=2048, bias=True)
            (v_proj): Linear(4.2 M, 0.32% Params, 536.87 MMACs, 0.34% MACs, 155.69 us, 0.31% latency, 6.9 TFLOPS, in_features=2048, out_features=2048, bias=True)
            (q_proj): Linear(4.2 M, 0.32% Params, 536.87 MMACs, 0.34% MACs, 158.55 us, 0.32% latency, 6.77 TFLOPS, in_features=2048, out_features=2048, bias=True)
            (out_proj): Linear(4.2 M, 0.32% Params, 536.87 MMACs, 0.34% MACs, 162.36 us, 0.33% latency, 6.61 TFLOPS, in_features=2048, out_features=2048, bias=True)
          )
          (activation_fn): ReLU(0, 0.00% Params, 0 MACs, 0.00% MACs, 40.77 us, 0.08% latency, 25.72 GFLOPS, )
          (self_attn_layer_norm): LayerNorm(4.1 k, 0.00% Params, 0 MACs, 0.00% MACs, 47.68 us, 0.10% latency, 27.49 GFLOPS, (2048,), eps=1e-05, elementwise_affine=True)
          (fc1): Linear(16.79 M, 1.28% Params, 2.15 GMACs, 1.37% MACs, 318.29 us, 0.64% latency, 13.49 TFLOPS, in_features=2048, out_features=8192, bias=True)
          (fc2): Linear(16.78 M, 1.28% Params, 2.15 GMACs, 1.37% MACs, 346.42 us, 0.70% latency, 12.4 TFLOPS, in_features=8192, out_features=2048, bias=True)
          (final_layer_norm): LayerNorm(4.1 k, 0.00% Params, 0 MACs, 0.00% MACs, 48.4 us, 0.10% latency, 27.08 GFLOPS, (2048,), eps=1e-05, elementwise_affine=True)
        )
        (23): OPTDecoderLayer(
          50.36 M, 3.83% Params, 6.51 GMACs, 4.17% MACs, 2.01 ms, 4.05% latency, 6.47 TFLOPS,
          (self_attn): OPTAttention(
            16.79 M, 1.28% Params, 2.21 GMACs, 1.42% MACs, 1.0 ms, 2.02% latency, 4.42 TFLOPS,
            (k_proj): Linear(4.2 M, 0.32% Params, 536.87 MMACs, 0.34% MACs, 158.55 us, 0.32% latency, 6.77 TFLOPS, in_features=2048, out_features=2048, bias=True)
            (v_proj): Linear(4.2 M, 0.32% Params, 536.87 MMACs, 0.34% MACs, 139.47 us, 0.28% latency, 7.7 TFLOPS, in_features=2048, out_features=2048, bias=True)
            (q_proj): Linear(4.2 M, 0.32% Params, 536.87 MMACs, 0.34% MACs, 162.6 us, 0.33% latency, 6.6 TFLOPS, in_features=2048, out_features=2048, bias=True)
            (out_proj): Linear(4.2 M, 0.32% Params, 536.87 MMACs, 0.34% MACs, 161.41 us, 0.32% latency, 6.65 TFLOPS, in_features=2048, out_features=2048, bias=True)
          )
          (activation_fn): ReLU(0, 0.00% Params, 0 MACs, 0.00% MACs, 40.05 us, 0.08% latency, 26.18 GFLOPS, )
          (self_attn_layer_norm): LayerNorm(4.1 k, 0.00% Params, 0 MACs, 0.00% MACs, 48.4 us, 0.10% latency, 27.08 GFLOPS, (2048,), eps=1e-05, elementwise_affine=True)
          (fc1): Linear(16.79 M, 1.28% Params, 2.15 GMACs, 1.37% MACs, 318.29 us, 0.64% latency, 13.49 TFLOPS, in_features=2048, out_features=8192, bias=True)
          (fc2): Linear(16.78 M, 1.28% Params, 2.15 GMACs, 1.37% MACs, 349.28 us, 0.70% latency, 12.3 TFLOPS, in_features=8192, out_features=2048, bias=True)
          (final_layer_norm): LayerNorm(4.1 k, 0.00% Params, 0 MACs, 0.00% MACs, 48.16 us, 0.10% latency, 27.22 GFLOPS, (2048,), eps=1e-05, elementwise_affine=True)
        )
      )
    )
  )
  (score): Linear(4.1 k, 0.00% Params, 524.29 KMACs, 0.00% MACs, 93.94 us, 0.19% latency, 11.16 GFLOPS, in_features=2048, out_features=2, bias=False)
)
------------------------------------------------------------------------------

-------------------------- DeepSpeed Flops Profiler --------------------------
Profile Summary at step 5:
Notations:
data parallel size (dp_size), model parallel size(mp_size),
number of parameters (params), number of multiply-accumulate operations(MACs),
…
